pretrained/dataset_combined_linear.pth (torch_old, 632429 bytes, 192 tensors)

model_dist.convs.0.0.weight f4 [16, 1, 3]
-0.18111204 0.2649131 0.50423497 0.3547077 -0.22641125 0.6385424 0.40592584 -0.11385418
-0.04835768 0.44219306 -0.3766094 -0.30342874 0.23080696 -0.08565755 -0.16889255 0.37343323
0.37813196 -0.5115212 -0.011494781 0.06011621 -0.05075036 -0.09783277 0.48970705 -0.18943845
-0.3283584 -0.36864373 0.5669456 -0.5106606 0.24994624 -0.13615331 0.391772 -0.17948054
-0.115907446 -0.40080404 0.5400138 -0.0016242693 0.086195834 -0.37404782 0.12042389 -0.47078994
0.18315667 -0.27264544 0.13676527 0.19820689 -0.4607383 -0.36757368 0.2340419 0.13146912
00000000: 6f75 39be b1a2 873e 8b15 013f 3f9c b53e
00000010: 5ad8 67be 8477 233f 83d5 cf3e 612c e9bd
00000020: b412 46bd 2167 e23e f3d2 c0be 035b 9bbe
00000030: a958 6c3e 3a6d afbd 2bf2 2cbe a432 bf3e
00000040: 839a c13e 0ef3 02bf 9b54 3cbc 6a3c 763d
00000050: 9cdf 4fbd 8c5c c8bd e2ba fa3e 27fc 41be
00000060: 981e a8be dfbe bcbe 5923 113f a7ba 02bf
00000070: e8f1 7f3e c66b 0bbe 5796 c83e bfc9 37be
00000080: e260 edbd 3036 cdbe 583e 0a3f 6fe5 d4ba
00000090: 7187 b03d 3283 bfbe cda0 f63d 610b f1be
000000a0: 6c8d 3b3e 2f98 8bbe 320c 0c3e bff6 4a3e
000000b0: e4e5 ebbe 9e32 bcbe aea8 6f3e d79f 063e

model_dist.convs.0.0.bias f4 [16]
0.17647548 0.12147863 0.5373249 0.6555878 0.33657035 0.43293032 -0.044603825 -0.5594008
-0.5581263 0.20060846 0.32755685 -0.5113155 0.5760779 -0.30080625 0.116161235 0.19229399
00000000: fdb5 343e cac9 f83d 208e 093f 9ad4 273f
00000010: f352 ac3e 0ba9 dd3e 80b2 36bd e434 0fbf
00000020: 5de1 0ebf 4e6c 4d3e 88b5 a73e 93e5 02bf
00000030: d779 133f 4703 9abe f1e5 ed3d b7e8 443e

model_dist.convs.0.1.weight f4 [16]
0.8059592 0.69925314 0.7160868 0.9347992 1.2745682 0.9002199 0.9451071 0.87620705
0.98722845 0.8510938 0.9319794 1.0507618 0.8746954 0.8410383 1.0259203 1.2445287
00000000: 5853 4e3f 4102 333f 7751 373f 004f 6f3f
00000010: 0d25 a33f d074 663f 8af2 713f 1b4f 603f
00000020: 01bb 7c3f 49e1 593f 3496 6e3f 5d7f 863f
00000030: 0aec 5f3f 494e 573f 5b51 833f b74c 9f3f

model_dist.convs.0.1.bias f4 [16]
-0.1417804 -0.08767827 -0.08831621 0.029015876 0.057177484 0.17444748 -0.09606085 0.062113073
0.073573686 0.08243662 -0.04043534 0.024269655 -0.045728844 0.07238024 0.08092996 0.017176775
00000000: e22e 11be aa90 b3bd 21df b4bd b4b2 ed3c
00000010: f032 6a3d 5ca2 323e 8dbb c4bd 476a 7e3d
00000020: cdad 963d 88d4 a83d 879f 25bd 28d1 c63c
00000030: 2b4e 3bbd 173c 943d 9bbe a53d 4fb6 8c3c

model_dist.convs.0.1.running_mean f4 [16]
0.18593293 0.13378794 0.54136163 0.6515898 0.33625454 0.4367209 -0.044640154 -0.55599964
-0.56024945 0.19414884 0.3295105 -0.50935054 0.57343256 -0.30975774 0.114213206 0.1924375
00000000: 3465 3e3e b5ff 083e ad96 0a3f 97ce 263f
00000010: 8e29 ac3e e299 df3e 98d8 36bd fe55 0ebf
00000020: 826c 0fbf f4ce 463e 9ab5 a83e cc64 02bf
00000030: 7acc 123f 9198 9ebe 9de8 e93d 560e 453e

model_dist.convs.0.1.running_var f4 [16]
0.010228305 0.0154880835 0.0019882342 0.0029394384 0.0003698559 0.0034537015 8.814911e-06 0.0015181636
0.0023905984 0.0044329423 0.000833268 0.0013330944 0.0009860252 0.008260811 0.0012204079 0.00061755267
00000000: 9f94 273c bbc1 7d3c 094d 023b 98a3 403b
00000010: 38e9 c139 7f57 623b c1e3 1337 1efd c63a
00000020: 96ab 1c3b 3742 913b ab6f 5a3a 3abb ae3a
00000030: 843d 813a 5a58 073c 18f6 9f3a 42e3 213a

model_dist.convs.1.0.weight f4 [16, 16, 3]
0.065454565 -0.02873055 -0.12314201 -0.023664575 -0.11981563 0.14683011 0.07606937 0.075222395
-0.11418074 0.0051484113 -0.08991698 -0.049134765 0.0647745 0.07374587 -0.31408137 0.086708255
-0.1139916 -0.044512466 0.023762386 0.009295461 -0.03445204 0.036503475 -0.10237446 0.052963074
-0.15776299 -0.26162907 0.19006473 -0.07604407 -0.049610384 0.12861115 -0.07485568 0.026467098
0.066921934 0.13038138 -0.0054506003 -0.04222008 -0.085260905 -0.1678365 -0.13287315 0.013870384
-0.015792813 -0.06701238 0.1137748 0.049167994 -0.07438222 0.06791646 -0.20992318 0.20537618
-0.12122667 0.10244939 -0.11815466 0.0403616 -0.054403603 0.15203919 -0.06300929 -0.15262243
0.20289147 0.05535981 0.15437117 0.039288126 0.11400598 0.045522522 0.117926046 -0.032552376
-0.10503947 0.07261805 -0.069280714 -0.12317151 0.16019598 0.05044846 0.052151125 0.21004106
-0.17556982 -0.10608549 -0.11920906 -0.087041706 0.023597516 -0.07672206 0.14109945 -0.08951496
0.17245112 0.13203618 0.010407108 0.12360548 0.09301026 0.18987437 0.1534494 -0.12586755
-0.015138933 0.100571275 -0.059914842 0.07572024 -0.12921192 0.112099044 0.18844657 0.012461532
-0.086693436 0.029973436 -0.019687742 -0.07211799 -0.07291232 0.12797059 0.04412 -0.00673211
0.018192476 -0.009977758 -0.10431004 -0.04923342 -0.11652027 0.2684895 -0.009694166 0.09902787
0.11287593 -0.081378914 -0.16669767 -0.12708771 -0.038544737 0.050218724 -0.110508926 0.0111886915
-0.014834348 -0.074626006 0.05345116 -0.1207652 -0.039382134 -0.1328213 0.16182476 0.23780476
-0.060609497 0.07253617 0.10039271 0.26685938 -0.02175953 -0.12839094 -0.032814156 -0.16638485
0.033399425 -0.16613024 -0.0054649645 0.03285061 -0.22315782 0.12034419 -0.10088201 0.12813267
0.13873371 -0.02787428 0.10349686 0.05355858 0.016172718 -0.06939035 -0.045695424 0.100706704
-0.005505527 0.09376549 -0.05696924 0.21923897 0.0015983593 -0.28992087 0.21486798 0.021960536
-0.10404096 0.042415794 0.105651915 0.055135194 0.013345208 -0.086806946 -0.037454616 -0.08548775
0.03163895 0.034241084 0.011479283 0.040929645 0.08698962 -0.06647712 0.021810416 0.017656807
-0.03553605 0.09536102 -0.11383392 -0.06585446 0.08353463 0.062446255 0.07480649 -0.11932175
-0.037250035 0.056874085 0.04790969 -0.24403496 0.028155345 -0.29543188 -0.061609253 -0.3329248
-0.114779375 0.071344025 -0.05090017 -0.009023005 0.13182455 -0.10459307 0.07999188 0.04279324
0.11071515 -0.044825844 -0.0068515344 -0.21648526 -0.26033762 0.27829042 -0.12238609 0.047539935
0.122777455 -0.11436509 0.051549785 0.066292614 0.03827582 0.036966603 0.03587558 0.014365372
-0.01998632 -0.022732656 -0.038948145 -0.035571154 0.0016869722 0.12945837 -0.085312426 -0.15447606
0.023102896 0.0057248627 0.03695743 -0.19680507 -0.074035436 0.09684006 0.016050545 -0.03958233
0.0068655917 -0.058892187 -0.004852493 0.12993191 -0.10828871 -0.028056517 -0.30507022 -0.06110377
0.0029206362 0.2642838 -0.105374485 -0.026927086 0.21456453 -0.058131974 0.021270325 0.08844054
0.030910114 0.1112182 -0.0020859672 0.0346656 0.0016268773 -0.03392288 -0.26034692 0.0708531
00000000: 0b0d 863d 555c ebbc e131 fcbd 36dc c1bc
00000010: e661 f5bd a25a 163e 42ca 9b3d 330e 9a3d
00000020: 98d7 e9bd 01b4 a83b 6526 b8bd 8941 49bd
00000030: 7ea8 843d 1308 973d 46cf a0be 1994 b13d
00000040: 6e74 e9bd b452 36bd 56a9 c23c fd4b 183c
00000050: 951d 0dbd ab84 153d b3a9 d1bd cfef 583d
00000060: 9f8c 21be 3ff4 85be 54a0 423e febc 9bbd
00000070: 4234 4bbd a4b2 033e ef4d 99bd 87d1 d83c
00000080: 5e0e 893d b282 053e f39a b2bb f6ee 2cbd
00000090: 459d aebd 55dd 2bbe e60f 08be 9b40 633c
000000a0: ee5f 81bc c93d 89bd c302 e93d 6164 493d
000000b0: b555 98bd c917 8b3d 1af6 56be 224e 523e
000000c0: b045 f8bd fcd0 d13d 12fb f1bd 3552 253d
000000d0: 50d6 5ebd 29b0 1b3e 040b 81bd 0e49 1cbe
000000e0: c8c2 4f3e f8c0 623d 7a13 1e3e 96ec 203d
000000f0: f87b e93d d375 3a3d 3683 f13d a455 05bd
00000100: ef1e d7bd c6b8 943d 0ce3 8dbd 5841 fcbd
00000110: 6a0a 243e 0ba3 4e3d 6b9c 553d 0115 573e
00000120: 93c8 33be 5943 d9bd e123 f4bd ec42 b2bd
00000130: 944f c13c 7520 9dbd 607c 103e 9f53 b7bd
00000140: 0797 303e 7e34 073e 9382 2a3c df24 fd3d
00000150: 2a7c be3d 6d6e 423e d721 1d3e 6ce3 00be
00000160: 4a09 78bc 50f8 cd3d 4469 75bd 3713 9b3d
00000170: 2150 04be 2f94 e53d 23f8 403e 742b 4c3c
00000180: 548c b1bd da8a f53c 3048 a1bc 99b2 93bd
00000190: 0e53 95bd b90a 033e 2cb7 343d 0899 dcbb
000001a0: 6308 953c c079 23bc 81a0 d5bd fca8 49bd
000001b0: 2ea2 eebd 7577 893e 47d4 1ebc 20cf ca3d
000001c0: 7f2b e73d fda9 a6bd cbb2 2abe 4823 02be
000001d0: 16e1 1dbd 26b2 4d3d 8152 e2bd c650 373c
000001e0: c40b 73bc 85d5 98bd 9bef 5a3d bf53 f7bd
000001f0: 294f 21bd 4f02 08be 64b5 253e 1783 733e
00000200: aa41 78bd d88d 943d b19a cd3d cba1 883e
00000210: 0b41 b2bc ea78 03be 2368 06bd ca60 2abe
00000220: d6cd 083d 0c1e 2abe 7213 b3bb 5c8e 063d
00000230: 7c83 64be 0477 f63d 3a9b cebd 3635 033e
00000240: 3610 0e3e 9a58 e4bc 29f6 d33d 3e60 5b3d
00000250: a67c 843c 871c 8ebd 202b 3bbd 513f ce3d
00000260: b567 b4bb 1f08 c03d 9458 69bd 2e80 603e
00000270: 0a80 d13a 8270 94be 5a06 5c3e 95e6 b33c
00000280: 6d13 d5bd 2fbc 2d3d 0860 d83d 71d5 613d
00000290: dca5 5a3c d7c7 b1bd 036a 19bd 3414 afbd
000002a0: d897 013d 6140 0c3d 9a13 3c3c d8a5 273d
000002b0: 9d27 b23d 2825 88bd c2ab b23c 02a5 903c
000002c0: 408e 11bd a34c c33d c221 e9bd b4de 86bd
000002d0: 3414 ab3d a5c7 7f3d 2534 993d f65e f4bd
000002e0: 7e93 18bd cdf4 683d f33c 443d 4de4 79be
000002f0: 0aa6 e63c d942 97be fc59 7cbd 1f75 aabe
00000300: 7311 ebbd d11c 923d b27c 50bd 3ad5 13bc
00000310: 04fd 063e e434 d6bd c8d2 a33d f747 2f3d
00000320: a0be e23d 4e9b 37bd d682 e0bb 50ae 5dbe
00000330: f94a 85be 157c 8e3e 8fa5 fabd 3cb9 423d
00000340: bf72 fb3d 3f38 eabd de25 533d 6cc4 873d
00000350: 1bc7 1c3d 4b6a 173d 46f2 123d bd5c 6b3c
00000360: 5aba a3bc d639 babc 1788 1fbd 0fb3 11bd
00000370: 651d dd3a bc90 043e 48b8 aebd f92e 1ebe
00000380: 4942 bd3c a197 bb3b ad60 173d 4587 49be
00000390: e49f 97bd 1554 c63d 6f7c 833c 1521 22bd
000003a0: c2f8 e03b ef38 71bd a901 9fbb df0c 053e
000003b0: 79c6 ddbd c8d6 e5bc 2a32 9cbe f247 7abd
000003c0: 2568 3f3b 3550 873e 94ce d7bd 3196 dcbc
000003d0: ceb6 5b3e cb1b 6ebd 1b3f ae3c 5020 b53d
000003e0: 3537 fd3c 5ec6 e33d b9b4 08bb 84fd 0d3d
000003f0: f23c d53a b8f2 0abd 314c 85be 6e1b 913d

model_dist.convs.1.0.bias f4 [16]
-0.1563194 -0.29612777 0.061157927 -0.23875242 -0.054680448 0.08171976 0.09424079 0.07820429
0.14208366 -0.28854245 0.09965972 -0.12831122 0.046237666 0.050661504 -0.12653592 -0.093686596
00000000: 3112 20be 0f9e 97be bc80 7a3d 847b 74be
00000010: 9bf8 5fbd b15c a73d 5101 c13d 9229 a03d
00000020: 617e 113e d6bb 93be 651a cc3d 0464 03be
00000030: b563 3d3d 7082 4f3d a292 01be c2de bfbd

model_dist.convs.1.1.weight f4 [16]
1.1003867 0.6502859 0.99556077 1.3540229 1.1525309 0.80274487 1.169438 0.7609435
0.915897 0.7000268 0.8350486 1.1774613 1.0662775 1.0152776 0.8096948 0.953446
00000000: 79d9 8c3f 2379 263f 12dd 7e3f 9f50 ad3f
00000010: 2286 933f b080 4d3f 25b0 953f 31cd 423f
00000020: 3a78 6a3f f534 333f bfc5 553f 0db7 963f
00000030: c87b 883f 9ef4 813f 2948 4f3f 0915 743f

model_dist.convs.1.1.bias f4 [16]
-0.013025507 0.005072037 -0.07435802 -0.0012990957 0.03422507 -0.06540951 0.12668726 -0.04539525
-0.0011205833 -0.0937522 0.0008148688 0.00734821 0.0938518 0.14405018 0.04843976 0.14943093
00000000: f068 55bc 5533 a63b 0549 98bd 6b46 aaba
00000010: 962f 0c3d 6cf5 85bd 4eba 013e 5ff0 39bd
00000020: 89e0 92ba 2701 c0bd eb9c 553a 41c9 f03b
00000030: 5f35 c03d e481 133e c568 463d 6c04 193e

model_dist.convs.1.1.running_mean f4 [16]
-0.3831763 0.013588826 0.012377012 -0.39572728 -0.28305876 0.68960226 0.032581557 0.4697945
0.044031244 0.31305003 0.14797772 -0.30679822 -0.15197535 0.14467527 0.23724554 0.03268726
00000000: af2f c4be aba3 5e3c f3c8 4a3c c49c cabe
00000010: 14ed 90be c689 303f 3d74 053d e888 f03e
00000020: 1b5a 343d 1848 a03e 7987 173e a814 9dbe
00000030: 6d9f 1bbe c125 143e 7ff0 723e 14e3 053d

model_dist.convs.1.1.running_var f4 [16]
0.36103737 0.325041 0.56528974 0.3430814 0.3175779 0.76322794 0.3831945 0.41790688
0.3127545 0.6962771 0.4093513 0.4051939 0.3122135 0.30553684 0.2968196 0.2553719
00000000: e4d9 b83e c66b a63e d4b6 103f 5ea8 af3e
00000010: 9299 a23e e862 433f 1232 c43e e4f7 d53e
00000020: 5c21 a03e 373f 323f 7e96 d13e 9375 cf3e
00000030: 73da 9f3e 536f 9c3e bdf8 973e 1bc0 823e

model_dist.convs.2.0.weight f4 [16, 16, 3]
0.19231494 -0.06548113 -0.024720317 -0.075406924 0.11600297 0.046754375 -0.10822832 -0.10569816
-0.08749789 0.038272146 -0.37636945 0.15567948 0.07762206 0.15618236 0.070244215 0.09876609
-0.024624452 -0.083547704 0.21702135 -0.18871373 -0.26879382 -0.016274346 -0.03570016 0.032873817
-0.17180552 0.037773028 -0.1163526 0.0027486759 -0.05477849 0.11333222 0.12039034 0.00910364
-0.07949385 -0.086800836 -0.13015908 -0.058754094 -0.08880385 0.033843268 -0.023774955 0.14140524
-0.12104838 -0.17431717 -0.09015685 0.12989344 -0.05991175 -0.053507175 0.02611088 -0.027403373
0.11501434 0.18124808 -0.32476163 -0.0634887 0.09957928 -0.085072875 -0.019759137 -0.09109002
0.15870121 -0.20732772 -0.31835252 0.22637431 -0.06852177 0.1345633 -0.15375116 0.06964318
-0.050071433 0.04972784 -0.057053592 -0.1365477 -0.032798264 0.006383032 0.022482892 0.13429694
0.0043979944 0.0199712 0.17076512 0.007475672 -0.011462424 0.039185926 -0.13702147 -0.002164195
0.07282593 0.09693344 -0.048025597 0.078358725 -0.053425454 -0.04261334 0.06397599 -0.03585412
-0.07960473 0.054130703 -0.07340286 -0.11180559 -0.04035537 0.01462101 -0.13752493 0.08104841
-0.06865227 -0.09094588 -0.11385028 0.07322823 0.09216569 0.1222246 0.0017015282 0.18163863
-0.0694835 -0.023260543 -0.038972434 0.07104121 0.008602268 0.062408183 0.11746722 0.109125026
0.04606345 -0.0019342987 0.0924922 0.148888 0.12753259 0.18554881 -0.040246543 0.1221568
0.14407739 0.028133877 0.11917017 0.09059854 0.12695731 0.17122021 0.042106062 0.06940119
0.024095647 0.23573759 0.08582617 0.071804486 -0.03171915 0.08037935 0.023016755 0.05629364
0.12536654 0.2071033 -0.07119346 0.028299436 0.25000963 -0.0045049246 0.14801037 0.11467638
-0.06865732 0.09128784 -0.036729597 0.04881189 -0.07134526 -0.1994477 0.022464091 0.13939147
0.08302791 -0.21848434 -0.07518677 -0.20798978 -0.18573156 0.12048615 0.06330208 -0.009499855
0.06147151 -0.04290556 -0.11891961 0.17048055 0.011221554 0.07910344 -0.048104227 -0.037219238
-0.09424402 -0.117944755 -0.11664167 -0.031490397 -0.053097792 -0.061401688 0.0032286185 0.07303848
-0.030307475 0.14815001 0.1809235 0.068732455 0.32067508 -0.009442806 -0.27658355 0.1582903
-0.17673533 -0.11625394 0.030388372 0.07175591 -0.042672165 -0.0047737407 0.1340172 0.109388314
0.020883208 -0.06017538 0.24488643 -0.022214323 -0.07168079 -0.0164968 0.06161188 0.14764787
-0.06255447 0.18602282 0.20894527 -0.04932627 0.14131577 0.019052407 -0.10901084 -0.0005105838
-0.08119644 0.026341774 0.09222086 0.213972 -0.24514121 -0.054032058 -0.14815897 -0.045189656
0.08615201 0.06604047 -0.06308462 0.012222306 -0.042796787 0.047121793 -0.09596267 -0.05813372
-0.08410201 0.11668127 -0.27322266 0.0012288783 -0.0009348875 -0.05161552 -0.040017232 0.073289774
0.034782454 -0.045256127 0.07001894 0.1567995 -0.12831384 0.050014343 -0.072896264 -0.1721266
0.21186575 -0.008542433 -0.07935321 0.10203021 0.05338213 0.05213526 0.21813259 0.015773876
0.084756285 0.18427399 -0.095629126 0.10736298 -0.012537659 -0.010232923 0.048004676 -0.041258994
00000000: 35ee 443e f81a 86bd 4382 cabc f26e 9abd
00000010: f792 ed3d 8481 3f3d cfa6 ddbd 4778 d8bd
00000020: 1832 b3bd 41c3 1c3d 7fb3 c0be 716a 1f3e
00000030: 51f8 9e3d 45ee 1f3e 33dc 8f3d e045 ca3d
00000040: 38b9 c9bc 0f1b abbd d83a 5e3e 2c3e 41be
00000050: 589f 89be c751 85bc 553a 12bd b2a6 063d
00000060: c9ed 2fbe e4b7 1a3d 464a eebd 2123 343b
00000070: 695f 60bd b91a e83d 368f f63d 6f27 153c
00000080: accd a2bd a3c4 b1bd 6c48 05be 22a8 70bd
00000090: cbde b5bd 3d9f 0a3d b2c3 c2bc 89cc 103e
000000a0: 37e8 f7bd 3380 32be 28a4 b8bd c902 053e
000000b0: 0666 75bd 572a 5bbd 7ce6 d53c 0a7d e0bc
000000c0: a38c eb3d 1999 393e 2847 a6be 5d06 82bd
000000d0: 39f0 cb3d b03a aebd eadd a1bc 688d babd
000000e0: 9282 223e b84d 54be 1aff a2be abce 673e
000000f0: 2455 8cbd f6ca 093e f270 1dbe 15a1 8e3d
00000100: b417 4dbd 6baf 4b3d 07b1 69bd 29d3 0bbe
00000110: 7957 06bd c128 d13b 0b2e b83c 2385 093e
00000120: 0d1d 903b a49a a33c 0ddd 2e3e 7bf6 f43b
00000130: e4cc 3bbc 6c81 203d 5b4f 0cbe 2bd5 0dbb
00000140: c325 953d 0a85 c63d 7db6 44bd 8a7a a03d
00000150: a6d4 5abd 538b 2ebd d805 833d c5db 12bd
00000160: ce07 a3bd 28b8 5d3d 3d54 96bd 54fa e4bd
00000170: ac4b 25bd f68c 6f3c 56d3 0cbe b5fc a53d
00000180: 9099 8cbd d541 babd 562a e9bd aff8 953d
00000190: 5ec1 bc3d e450 fa3d d005 df3a 7aff 393e
000001a0: 5e4d 8ebd e58c bebc 8fa1 1fbd 0e7e 913d
000001b0: 87f0 0c3c b99f 7f3d a792 f03d f17c df3d
000001c0: 07ad 3c3d 4b88 fdba 8d6c bd3d 1976 183e
000001d0: e797 023e 8200 3e3e 8fd9 24bd 582d fa3d
000001e0: 0689 133e 0479 e63c 7d0f f43d ba8b b93d
000001f0: 1901 023e 5a54 2f3e 6877 2c3d 3622 8e3d
00000200: 3c64 c53c 3265 713e a2c5 af3d 3b0e 933d
00000210: f0eb 01bd ee9d a43d a28d bc3c 2994 663d
00000220: 1660 003e e312 543e e0cd 91bd 38d4 e73c
00000230: 4301 803e 0c9e 93bb 0890 173e 73db ea3d
00000240: 369c 8cbd 1ef5 ba3d c671 16bd faee 473d
00000250: 771d 92bd 053c 4cbe 9d06 b83c a3bc 0e3e
00000260: 890a aa3d 5cba 5fbe 85fb 99bd 46fb 54be
00000270: 6a30 3ebe 71c1 f63d 85a4 813d 48a5 1bbc
00000280: 8dc9 7b3d bebd 2fbd 208c f3bd 7492 2e3e
00000290: 9cda 373c fc00 a23d f008 45bd 3373 18bd
000002a0: 0203 c1bd 058d f1bd d4e1 eebd 13fc 00bd
000002b0: 127d 59bd 5680 7bbd 3b97 533b 3395 953d
000002c0: 6247 f8bc a3b4 173e 0344 393e 9ac3 8c3d
000002d0: 862f a43e 00b6 1abc 5c9c 8dbe da16 223e
000002e0: 1bfa 34be 8c16 eebd 09f1 f83c c3f4 923d
000002f0: 02c9 2ebd 0a6d 9cbb ce3b 093e fb06 e03d
00000300: 4313 ab3c 767a 76bd 82c3 7a3e d0fa b5bc
00000310: 61cd 92bd 4c24 87bc bd5c 7c3d 0131 173e
00000320: 8f1c 80bd c47c 3e3e c0f5 553e 580a 4abd
00000330: 15b5 103e cb13 9c3c 1341 dfbd b3d8 05ba
00000340: 524a a6bd b4ca d73c 4ade bc3d 7a1b 5b3e
00000350: 4c06 7bbe b850 5dbd fcb6 17be ca18 39bd
00000360: 7770 b03d 3a40 873d 8232 81bd 1140 483c
00000370: af4b 2fbd c802 413d 1488 c4bd a01d 6ebd
00000380: ad3d acbd 97f6 ee3d d7e3 8bbe 5012 a13a
00000390: 3d13 75ba cc6a 53bd 1ce9 23bd f318 963d
000003a0: 0c78 0e3d 7d5e 39bd 1766 8f3d 0c90 203e
000003b0: b464 03be d7db 4c3d a34a 95bd f541 30be
000003c0: 56f3 583e 90f5 0bbc f083 a2bd 37f5 d03d
000003d0: 38a7 5a3d c88b 553d 265e 5f3e 3738 813c
000003e0: b494 ad3d 52b2 3c3e 34d9 c3bd 1fe1 db3d
000003f0: c16a 4dbc fda7 27bc 8da0 443d 31ff 28bd

model_dist.convs.2.0.bias f4 [16]
0.072304234 -0.05191672 -0.0989644 0.018914746 -0.036258206 -0.05632823 0.0713334 -0.054591633
-0.21657069 0.28343475 -0.20989488 -0.09592744 -0.046221476 0.015219657 -0.1458765 -0.16520286
00000000: 3e14 943d a0a6 54bd d9ad cabd 19f3 9a3c
00000010: 7c83 14bd 6eb8 66bd 3f17 923d 7a9b 5fbd
00000020: b5c4 5dbe 5c1e 913e afee 56be 9b75 c4bd
00000030: bb52 3dbd de5b 793c a660 15be f02a 29be

model_dist.convs.2.1.weight f4 [16]
0.9948526 1.0630211 0.65797347 1.1040928 1.0124211 0.92539686 1.2204442 0.99109215
1.0671439 1.0998132 1.0024092 1.0155627 0.79231864 1.0174161 0.9002865 0.9507119
00000000: a9ae 7e3f 1311 883f f370 283f ea52 8d3f
00000010: 0497 813f cfe6 6c3f 8437 9c3f 37b8 7d3f
00000020: 2c98 883f aec6 8c3f f24e 803f f5fd 813f
00000030: 65d5 4a3f b13a 823f 2d79 663f db61 733f

model_dist.convs.2.1.bias f4 [16]
0.039152198 -0.09230452 -0.016865477 -0.026664207 0.058354415 -0.1734597 -0.0047147633 0.06399871
-0.027123712 0.122245304 0.01725993 -0.06282716 0.023945885 0.03009246 0.05764852 -0.001902494
00000000: 0e5e 203d 270a bdbd 7829 8abc e56e dabc
00000010: 0a05 6f3d 6b9f 31be 4d7e 9abb c111 833d
00000020: 8c32 debc bf5b fa3d b264 8d3c 87ab 80bd
00000030: 292a c43c 7684 f63c db20 6c3d 1b5d f9ba

model_dist.convs.2.1.running_mean f4 [16]
-0.25193846 -0.24679178 0.8194156 -0.0294542 -0.002967135 -0.096523024 -0.046721816 -0.2263761
-0.14875029 0.11775142 -0.1764556 -0.6566753 0.12793413 -0.34428102 0.12017215 -0.30910194
00000000: 14fe 80be fcb6 7cbe 39c5 513f ef49 f1bc
00000010: 4474 42bb ddad c5bd 605f 3fbd 23cf 67be
00000020: ff51 18be a827 f13d c7b0 34be df1b 28bf
00000030: 2a01 033e 9a45 b0be d11c f63d 9c42 9ebe

model_dist.convs.2.1.running_var f4 [16]
0.2141784 0.13812567 1.3490872 0.43293253 0.1931735 0.21928301 0.23395377 0.19087583
0.24887821 0.32850468 0.1991484 0.732401 0.53782195 0.19527389 0.21895759 0.25730127
00000000: 9551 5b3e d170 0d3e e4ae ac3f 55a9 dd3e
00000010: 46cf 453e ba8b 603e 9491 6f3e f474 433e
00000020: eed9 7e3e c431 a83e 8fed 4b3e a27e 3b3f
00000030: b3ae 093f e1f5 473e 6b36 603e febc 833e

model_dist.convs.3.0.weight f4 [16, 16, 3]
-0.1487233 0.062038623 0.086933665 -0.080196336 -0.06656909 0.15401116 0.11195021 -0.14510892
-0.054347627 0.100286186 0.08767873 -0.19428053 0.0035804142 -0.12499114 -0.12417453 -0.08334806
-0.1338486 0.050974537 -0.28134048 0.032650888 -0.06294539 0.044649813 0.08300398 -0.1330894
0.024542466 -0.1122665 -0.020597165 -0.07198522 -0.13112529 0.09127432 -0.04283543 0.107177936
-0.05776038 -0.036846504 0.12878679 0.15229456 -0.036468178 -0.12213944 0.11162412 0.20083322
0.020325579 -0.042750794 0.12859648 -0.10424047 -0.006263526 -0.07463856 -0.15685634 0.11891324
0.10005826 -0.06977259 -0.10071809 0.12712996 -1.2932277e-05 0.1434569 0.04659128 0.051897425
-0.08220657 -0.10947873 -0.08222925 -0.0741029 -0.21280482 -0.11373879 0.08560392 0.14277935
-0.06356855 0.10635712 -0.37211952 -0.08302872 0.12688784 0.15532316 0.082294956 0.06719953
0.023616778 -0.20512137 0.10229287 0.034253776 0.098530665 -0.0024652462 0.16449925 -0.20448819
-0.10267973 0.01967266 0.020066366 0.13024372 -0.011252821 -0.1069972 -0.13379025 0.0006422269
0.23537461 0.20444335 -0.00076594664 -0.0013813666 0.05417676 -0.07092099 -0.027653968 0.097172566
-0.026399758 0.14932838 -0.15021172 0.00048945984 -0.18073376 -0.06391822 -0.02290849 -0.048276316
-0.038649634 -0.09422816 0.033723123 -0.14796568 -0.14564402 0.17921665 -0.14103396 -0.099201754
-0.052814744 -0.020452773 0.18153922 -0.113666765 0.002772138 -0.16483064 -0.010417918 -0.08706464
0.20545754 -0.093424976 -0.13345785 -0.1893237 0.28105843 0.0062778937 0.0843998 -0.017753994
-0.20402333 -0.041692384 0.060882874 -0.1582178 0.008020676 0.035389185 -0.0036588605 -0.054181665
0.0009078733 -0.033993006 0.059814587 -0.085903294 0.047121547 -0.06692295 -0.013471494 -0.05940827
-0.112116024 -0.15754832 0.12345908 0.05640733 -0.21786787 0.065837435 0.11235892 0.12546964
0.03670372 -0.06215244 -0.041784648 -0.06324077 -0.1826993 0.08783329 -0.024997396 -0.16004294
0.0038210559 0.027680257 -0.14839429 0.005290248 -0.051193547 0.11186983 -0.10506279 0.10695557
0.0021904677 0.15948445 -0.1873624 0.12450877 0.06202117 -0.060896743 -0.006568533 0.02490617
0.1118014 -0.041958194 -0.22137816 -0.07316632 -0.08428923 0.093779795 -0.111981146 0.03090631
0.03996396 -0.14092141 0.16663611 0.08271233 0.32410818 0.09543995 0.10438008 0.17877421
-0.11887758 -0.04102268 0.02455012 -0.09187211 -0.07462611 0.027683653 -0.11504309 -0.029526757
0.09833568 -0.13393776 -0.009726742 -0.08138914 0.09613359 0.09477501 -0.04481871 0.15706357
-0.13078517 -0.09671144 0.11189131 0.27088672 0.2538548 0.03710678 -0.16064705 -0.046080895
-0.15036997 0.00876188 0.053242337 -0.073797524 -0.09500304 -0.057417598 -0.18733692 -0.19242956
0.029024476 0.008727553 -0.07060241 0.02944529 0.010999169 -0.060068764 -0.040671404 -0.055973306
0.046546023 -0.13165992 -0.07451474 -0.0932953 0.17144704 -0.15191956 0.114373356 0.11614452
0.2628685 -0.13230863 0.10988795 0.15025392 -0.23126277 -0.0080178855 -0.14892714 0.06039447
-0.01014681 -0.016817272 -0.1950471 0.043856237 0.117719784 -0.009084142 -0.20033723 0.122129165
00000000: ec4a 18be 361c 7e3d 470a b23d fa3d a4bd
00000010: 6055 88bd 1ab5 1d3e 2746 e53d 6f97 14be
00000020: 9e9b 5ebd d862 cd3d e890 b33d 7af1 46be
00000030: 62a5 6a3b 5bfb ffbd 374f febd 63b2 aabd
00000040: 9b0f 09be adca 503d dc0b 90be f0bc 053d
00000050: 83e9 80bd b9e2 363d fefd a93d 9648 08be
00000060: 480d c93c fbeb e5bd 63bb a8bc fd6c 93bd
00000070: b545 06be 08ee ba3d 3474 2fbd 1b80 db3d
00000080: 2696 6cbd 5cec 16bd afe0 033e 1bf3 1b3e
00000090: a85f 15bd 3e24 fabd 309b e43d 39a7 4d3e
000000a0: d481 a63c 751b 2fbd ccae 033e 077c d5bd
000000b0: 443e cdbb 1adc 98bd f39e 20be c988 f33d
000000c0: 58eb cc3d efe4 8ebd 4945 cebd 5b2e 023e
000000d0: b5f7 58b7 5ee6 123e 7fd6 3e3d 6592 543d
000000e0: eb5b a8bd 6236 e0bd cf67 a8bd 43c3 97bd
000000f0: 82e9 59be e2ef e8bd 1c51 af3d c034 123e
00000100: 3a30 82bd c3d1 d93d 7386 bebe f60a aabd
00000110: e3ee 013e 090d 1f3e 428a a83d e89f 893d
00000120: f977 c13c 560b 52be ed7e d13d b04d 0c3d
00000130: 72ca c93d f88f 21bb 7e72 283e 5a65 51be
00000140: c049 d2bd 8f28 a13c 3862 a43c 9c5e 053e
00000150: c15d 38bc 5921 dbbd 5000 09be 1e5b 283a
00000160: 0b06 713e 9959 513e cfc9 48ba f90e b5ba
00000170: 73e8 5d3d 063f 91bd 938a e2bc 6902 c73d
00000180: 4e44 d8bc 8ae9 183e 1ad1 19be 184f 003a
00000190: 4512 39be 8ee7 82bd 96aa bbbc 63bd 45bd
000001a0: 144f 1ebd b2fa c0bd 4221 0a3d 5184 17be
000001b0: b523 15be 9284 373e 356b 10be 4a2a cbbd
000001c0: 4654 58bd 938c a7bc 6be5 393e 1fca e8bd
000001d0: c2ac 353b 5dc9 28be eaaf 2abc f24e b2bd
000001e0: 7663 523e 9855 bfbd 2da9 08be 12de 41be
000001f0: e4e6 8f3e cab6 cd3b cdd9 ac3d d370 91bc
00000200: 7eeb 50be a2c5 2abd 5260 793d d903 22be
00000210: 2769 033c 40f4 103d 7ec9 6fbb 98ed 5dbd
00000220: 59fe 6d3a 403c 0bbd 2400 753d 11ee afbd
00000230: 8602 413d e60e 89bd 8bb7 5cbc 1656 73bd
00000240: 169d e5bd 5954 21be 1dd8 fc3d 5f0b 673d
00000250: c118 5fbe c7d5 863d 6f1c e63d 1d7b 003e
00000260: a456 163d 8f93 7ebd 6126 2bbd 6084 81bd
00000270: 8615 3bbe f1e1 b33d 57c7 ccbc 4ce2 23be
00000280: ae6a 7a3b b5c1 e23c acf4 17be d159 ad3b
00000290: 53b0 51bd 021c e53d 292b d7bd 860b db3d
000002a0: f38d 0f3b e44f 233e eedb 3fbe 74fe fe3d
000002b0: e909 7e3d dd6e 79bd d93c d7bb 0608 cc3c
000002c0: 22f8 e43d 5bdc 2bbd f5b0 62be 39d8 95bd
000002d0: d59f acbd 9f0f c03d 5f56 e5bd 3b2f fd3c
000002e0: 40b1 233d b44d 10be a8a2 2a3e 1565 a93d
000002f0: 82f1 a53e 0576 c33d 39c5 d53d 9610 373e
00000300: 1776 f3bd 6607 28bd 551d c93c 7227 bcbd
00000310: 93d5 98bd d4c8 e23c b69b ebbd 19e2 f1bc
00000320: 3864 c93d fb26 09be ea5c 1fbc 59af a6bd
00000330: b0e1 c43d 6719 c23d d393 37bd 46d5 203e
00000340: 8cec 05be a610 c6bd 4527 e53d aab1 8a3e
00000350: 42f9 813e 47fd 173d a980 24be 52bf 3cbd
00000360: 96fa 19be fd8d 0f3c a314 5a3d 2823 97bd
00000370: f490 c2bd b72e 6bbd 40d5 3fbe 410c 45be
00000380: bdc4 ed3c 03fe 0e3c ff97 90bd 4037 f13c
00000390: dc35 343c aa0a 76bd 0f97 26bd 4444 65bd
000003a0: 0ba7 3e3d dcd1 06be 2f9b 98bd 9b11 bfbd
000003b0: d08f 2f3e cd90 1bbe 943c ea3d 2edd ed3d
000003c0: b396 863e ea7b 07be ef0c e13d 2adc 193e
000003d0: 26d0 6cbe 735d 03bc 5b80 18be 3160 773d
000003e0: ce3e 26bc 60c4 89bc 6dba 47be 99a2 333d
000003f0: 1217 f13d a7d5 14bc 3425 4dbe db1e fa3d

model_dist.convs.3.0.bias f4 [16]
-0.0034503709 0.06581289 0.09547485 0.044996005 0.115694046 -0.17834224 0.10883054 0.1288587
-0.24832694 -0.0123409005 -0.14207187 0.06729464 -0.11097261 -0.017164465 -0.004653266 0.049788866
00000000: 9e1f 62bb e9c8 863d 5188 c33d bb4d 383d
00000010: 00f1 ec3d 599f 36be 8ce2 de3d 89f3 033e
00000020: 6b49 7ebe 7d31 4abc 4a7b 11be c6d1 893d
00000030: 9c45 e3bd 7e9c 8cbc 6d7a 98bb 69ef 4b3d

model_dist.convs.3.1.weight f4 [16]
0.84556895 0.9623257 0.996217 0.7819286 0.9123705 1.1005787 0.95932895 1.050055
0.91887677 1.1798722 1.089679 1.011488 1.1535625 0.9636228 0.98068607 0.9395713
00000000: 3577 583f fa5a 763f 1408 7f3f 792c 483f
00000010: 1d91 693f c3df 8c3f 9596 753f 3468 863f
00000020: 823b 6b3f 0d06 973f 9a7a 8b3f 7078 813f
00000030: f0a7 933f fcaf 763f 3e0e 7b3f bf87 703f

model_dist.convs.3.1.bias f4 [16]
-0.13226883 0.04032889 -0.009275048 -0.11685917 -0.15166996 0.06102387 0.042943135 0.14099811
-0.06533374 0.06081799 -0.03931386 0.01978281 -0.05360215 -0.009613352 -0.033513673 -0.058969993
00000000: 7b71 07be e82f 253d 5ff6 17bc dc53 efbd
00000010: 5f4f 1bbe 2af4 793d 24e5 2f3d cf61 103e
00000020: b2cd 85bd 491c 793d 9207 21bd 8f0f a23c
00000030: ee8d 5bbd 5281 1dbc a245 09bd 858a 71bd

model_dist.convs.3.1.running_mean f4 [16]
-0.2325985 0.09323281 -0.28112116 0.08799783 -0.11243215 -0.3309331 0.08515752 0.07369192
-0.5002338 -0.41087553 -0.3793634 0.07989816 -0.2657083 0.013013864 -0.014789605 -0.18800917
00000000: 4d2e 6ebe d8f0 be3d 1def 8fbe 3538 b43d
00000010: d442 e6bd 1070 a9be 1167 ae3d caeb 963d
00000020: 530f 00bf 475e d2be eb3b c2be a6a1 a33d
00000030: eb0a 88be 1a38 553c 1950 72bc 7a85 40be

model_dist.convs.3.1.running_var f4 [16]
0.1533614 0.30990243 0.24210085 0.32685164 0.23496066 0.26244608 0.22879434 0.2772206
0.19878422 0.25047946 0.35121173 0.2416775 0.35596982 0.25881374 0.13990174 0.16558963
00000000: c50a 1d3e 88ab 9e3e 49e9 773e 1959 a73e
00000010: 8799 703e 555f 863e 1049 6a3e dcef 8d3e
00000020: 178e 4b3e d83e 803e 06d2 b33e 4e7a 773e
00000030: ad41 b63e 3c83 843e 6742 0f3e 5490 293e

model_dist.convs.4.0.weight f4 [32, 16, 3]
-0.15121055 0.14353289 0.009935961 0.31031725 0.025274344 0.087852165 -0.046131127 -0.11308815
0.024543494 -0.13287973 -0.11246762 -0.10762058 0.040421955 -0.20812479 0.06418319 0.17465027
0.09392202 -0.19906005 0.050610654 0.016242122 0.024792243 0.15705706 -0.21353011 -0.16885911
0.1043447 -0.05447816 -0.05409876 -0.030552454 -0.08243406 -0.036842532 0.08873235 0.011217495
0.03699194 0.124453686 0.1891178 0.113288224 -0.065576434 0.22311465 -0.060044814 0.04078432
-0.09603698 -0.3065087 0.086524695 0.15396613 0.08724432 0.07964225 -0.10563592 0.024892747
0.029804002 -0.3107715 -0.12793668 -0.08063723 0.06064631 -0.14655374 -0.15221578 0.11298342
0.038784917 0.039454617 -0.061285157 0.07174477 0.23590112 0.15150464 -0.04765405 -0.0072056707
-0.03467264 -0.22879785 -0.013377979 0.07801066 0.04654143 -0.05404546 0.018565053 -0.09773703
-0.09549296 0.08896797 0.065286465 0.009812038 0.26214117 0.1218707 -0.22119616 0.09597008
-0.10425111 -0.083254926 0.2354868 0.12940039 -0.14014763 0.17389213 -0.03424823 0.1425821
-0.031673245 0.025095524 0.11104858 0.012282817 -0.074884854 -0.08464984 0.051433023 0.018982189
0.013476278 -0.013040854 0.063046716 -0.21476564 -0.102335945 -0.14232925 -0.044916615 -0.029394932
-0.08264023 0.14830466 -0.07913723 -0.07760821 -0.14107068 0.15917361 0.04652797 -0.031695824
0.13662335 -0.15812008 -0.22551548 0.066084415 0.18259858 -0.056621794 0.12848988 0.20563883
-0.043070786 -0.070906125 -0.052421343 0.12442481 -0.087308474 -0.1015621 -0.11234967 -0.0029146755
-0.055091076 0.174788 -0.15168783 -0.03507115 -0.018008279 -0.039181072 -0.009790924 -0.10494509
-0.009855873 -0.23764743 0.13738237 -0.11189196 0.14833356 0.14215507 -0.053691063 -0.11289093
0.12139458 -0.05780003 0.029720353 -0.013206257 -0.033647303 -0.18624666 -0.077356935 -0.17589882
0.0008655643 -0.028606504 -0.14900897 0.00013434165 0.035782393 -0.15752308 0.12501554 -0.14981161
0.15692417 -0.19572562 -0.011428454 -0.033113364 -0.11177963 -0.13749617 -0.07034331 0.15444991
-0.13397774 -0.121909566 -0.08437486 -0.028711982 -0.17245843 -0.12239184 0.15672326 -0.078175195
0.09409471 0.017670996 0.14497039 0.14952122 0.09850603 -0.0584773 -0.050887268 0.11071764
-0.07532 0.13544843 0.004746881 0.08508902 0.118057236 0.2214073 0.040469747 -0.1567833
0.06763522 0.14453326 0.11481719 0.046529494 -0.036321614 -0.08603836 0.12440006 0.08186832
-0.2294785 -0.09438595 -0.014461882 -0.06260976 -0.10515333 0.14753807 0.029866664 -0.090528764
0.13162689 -0.023684451 -0.17525539 0.09450403 -0.028223755 -0.20420876 -0.1183404 0.2533317
-0.06620216 0.16681889 -0.15151781 -0.16129367 0.050479934 0.07863039 -0.15965134 0.16387917
-0.08710091 -0.10684942 0.15506727 -0.16382782 0.042801186 -0.10092528 -0.01090365 0.1602173
-0.009850517 0.1808934 0.18099761 0.12024245 -0.1074452 0.027129538 0.11504455 -0.09658292
0.026034385 -0.018754903 -0.013476208 0.11690512 0.16828106 -0.07942385 0.1552294 -0.16781907
-0.09714461 0.018081503 0.06986275 0.0514477 -0.2645789 -0.20064309 0.018802077 -0.031156551
00000000: f0d6 1abe 49fa 123e 71ca 223c e7e1 9e3e
00000010: 240c cf3c d6eb b33d fef3 3cbd c39a e7bd
00000020: 700f c93c a011 08be 6c55 e6bd 2e68 dcbd
00000030: 7e91 253d aa1e 55be 7a72 833d 85d7 323e
00000040: 305a c03d 66d6 4bbe 1e4d 4f3d 330e 853c
00000050: 1a19 cb3c 91d3 203e a3a7 5abe 67e9 2cbe
00000060: adb2 d53d 7e24 5fbd a996 5dbd 2449 fabc
00000070: 30d3 a8bd 32e8 16bd 4eb9 b53d 96c9 373c
00000080: dc84 173d 93e1 fe3d 19a8 413e a803 e83d
00000090: f04c 86bd 2b78 643e 8df1 75bd 760d 273d
000000a0: 09af c4bd b5ee 9cbe dc33 b13d 4ca9 1d3e
000000b0: 26ad b23d 7a1b a33d a557 d8bd e0eb cb3c
000000c0: 8627 f43c 711d 9fbe d501 03be 2225 a5bd
000000d0: 4468 783d 2f12 16be 74de 1bbe da63 e73d
000000e0: efdc 1e3d 2a9b 213d 2506 7bbd ecee 923d
000000f0: 1090 713e 0824 1b3e e530 43bd 8c1d ecbb
00000100: e604 0ebd fc49 6abe 502f 5bbc 0ec4 9f3d
00000110: 3aa2 3e3d c65e 5dbd bd15 983c 5a2a c8bd
00000120: d091 c3bd d734 b63d e9b4 853d acc2 203c
00000130: 5e37 863e 5897 f93d 3f81 62be f68b c43d
00000140: 9b81 d5bd 8f81 aabd 7423 713e 8981 043e
00000150: dc82 0fbe c710 323e df47 0cbd 0b01 123e
00000160: cebb 01bd 2195 cd3c 706d e33d de3d 493c
00000170: 3b5d 99bd e55c adbd 6fab 523d 8980 9b3c
00000180: 9bcb 5c3c 4ea9 55bc a31e 813d 86eb 5bbe
00000190: 8295 d1bd c2be 11be 7cfa 37bd a4cd f0bc
000001a0: 483f a9bd 2ddd 173e b312 a2bd 0ef1 9ebd
000001b0: d574 10be 68fe 223e 1d94 3e3d 7bd3 01bd
000001c0: fee6 0b3e 3bea 21be 88ed 66be 4457 873d
000001d0: 1ffb 3a3e 41ec 67bd da92 033e fc92 523e
000001e0: fe6a 30bd 3b37 91bd c3b7 56bd 6fd2 fe3d
000001f0: c9ce b2bd caff cfbd 9517 e6bd 2404 3fbb
00000200: 2ea7 61bd a0fb 323e 0e54 1bbe c4a6 0fbd
00000210: 1986 93bc 557c 20bd 1d6a 20bc 74ed d6bd
00000220: 877a 21bc d959 73be f7ad 0c3e 9d27 e5bd
00000230: c1e4 173e 1991 113e 29eb 5bbd 5c33 e7bd
00000240: b99d f83d b9bf 6cbd 1978 f33c 0e5f 58bc
00000250: c1d1 09bd 72b7 3ebe 506d 9ebd d21e 34be
00000260: 09e7 623a 3058 eabc cf95 18be 10de 0c39
00000270: 8f90 123d bb4d 21be 1304 003e 3768 19be
00000280: bbb0 203e 4c6c 48be 693e 3bbc e1a1 07bd
00000290: b8ec e4bd cccb 0cbe 2710 90bd 1e28 1e3e
000002a0: 7631 09be b9ab f9bd bacc acbd 6435 ebbc
000002b0: f198 30be 93a8 fabd 107c 203e 511a a0bd
000002c0: bab4 c03d c4c2 903c 1e73 143e 171c 193e
000002d0: 88bd c93d e585 6fbd 2b6f 50bd eebf e23d
000002e0: 5f41 9abd feb2 0a3e b98b 9b3b 2743 ae3d
000002f0: fec7 f13d 98b8 623e 9bc3 253d cd8b 20be
00000300: 5684 8a3d 8700 143e 4625 eb3d b695 3e3d
00000310: f9c5 14bd e134 b0bd 75c5 fe3d 94aa a73d
00000320: 69fc 6abe 6c4d c1bd 88f1 6cbc 8c39 80bd
00000330: a15a d7bd 3814 173e efaa f43c 2567 b9bd
00000340: 33c9 063e e505 c2bc 2676 33be 548b c13d
00000350: 8135 e7bc 1a1c 51be 745c f2bd b1b4 813e
00000360: 0095 87bd 92d2 2a3e 7c27 1bbe 2b2a 25be
00000370: 0cc4 4e3d f808 a13d a47b 23be f1cf 273e
00000380: f661 b2bd ded3 dabd f4c9 1e3e 7bc2 27be
00000390: 4c50 2f3d eab1 cebd 39a5 32bc 0110 243e
000003a0: 1064 21bc 1f3c 393e 7057 393e ac41 f63d
000003b0: 3b0c dcbd c43e de3c 7a9c eb3d 44cd c5bd
000003c0: 1046 d53c e2a3 99bc 50cb 5cbc f46b ef3d
000003d0: df51 2c3e f9a8 a2bd 75f4 1e3e c3d8 2bbe
000003e0: c1f3 c6bd a91f 943c 3414 8f3d d3ba 523d
000003f0: e376 87be 6275 4dbe d006 9a3c 063c ffbc

model_dist.convs.4.0.bias f4 [32]
0.065055 0.009324721 0.13336734 -0.15777111 0.11459475 0.042996053 -0.055342425 0.05654444
0.12082536 0.08971514 -0.14006878 -0.02736936 0.053645987 0.17874931 -0.1711246 -0.109386295
0.16297567 0.09064655 0.22131982 -0.21041922 0.08226656 0.100385785 -0.051071323 -0.011711977
0.09728906 -0.12462806 -0.0034004168 -0.011355591 0.043035842 0.05033021 -0.16985172 -0.1869284
00000000: 8e3b 853d b7c6 183c 7391 083e c08e 21be
00000010: a7b0 ea3d a11c 303d bdae 62bd 259b 673d
00000020: 4973 f73d 92bc b73d 316e 0fbe b535 e0bc
00000030: e5bb 5b3d 0f0a 373e 4a3b 2fbe ec05 e0bd
00000040: 18e3 263e e6a4 b93d aaa1 623e 2378 57be
00000050: 5f7b a83d 1097 cd3d 2a30 51bd 98e3 3fbc
00000060: 7d3f c73d ff3c ffbd 87d9 5ebb cd0c 3abc
00000070: 5a46 303d 0d27 4e3d 9ced 2dbe 296a 3fbe

model_dist.convs.4.1.weight f4 [32]
0.89471966 0.9190499 1.1109974 0.904475 1.0316797 0.79807216 0.9281057 0.9756353
1.0050886 0.91801053 1.0321618 0.91390336 1.01944 0.8707778 0.9452602 0.9214635
0.99009293 1.0637735 1.1836026 0.97678226 0.965236 0.8828123 1.0580014 0.87730604
0.84171104 0.9179352 0.96078134 0.95427984 0.9285024 1.0793058 0.78157026 1.1285775
00000000: 590c 653f db46 6b3f 2a35 8e3f ac8b 673f
00000010: 150e 843f 754e 4c3f 5698 6d3f 3cc3 793f
00000020: bea6 803f bd02 6b3f e11d 843f 92f5 693f
00000030: 037d 823f 4beb 5e3f 93fc 713f 08e5 6b3f
00000040: bb76 7d3f bb29 883f 4a80 973f 670e 7a3f
00000050: b519 773f fdff 613f 976c 873f 2197 603f
00000060: 607a 573f cdfd 6a3f c4f5 753f af4b 743f
00000070: 55b2 6d3f b126 8a3f fd14 483f 3a75 903f

model_dist.convs.4.1.bias f4 [32]
-0.12470991 -0.09586372 0.05318592 0.038567644 -0.082927756 -0.034009263 -0.063515626 -0.13323388
0.005282205 0.03274693 -0.02065075 -0.03352743 -0.04461016 -0.11041004 -0.060198132 0.023635581
-0.09808615 -0.12027976 -0.11509301 -0.036821015 -0.047123626 0.003217831 -0.009885721 0.017585246
-0.15955906 -0.095390245 0.04357472 0.018450197 -0.029738145 0.065647535 -0.17385 0.03503786
00000000: e967 ffbd 3354 c4bd 7bd9 593d 1bf9 1d3d
00000010: 07d6 a9bd 4c4d 0bbd 7b14 82bd 766e 08be
00000020: 5916 ad3b a521 063d c32b a9bc 0f54 09bd
00000030: 25b9 36bd a91e e2bd 5192 76bd 689f c13c
00000040: 64e1 c8bd 3c55 f6bd e2b5 ebbd a2d1 16bd
00000050: b404 41bd 3fe2 523b b8f7 21bc ef0e 903c
00000060: 7363 23be f65b c3bd 687b 323d de24 973c
00000070: 699d f3bc 3772 863d bc05 32be dc83 0f3d

model_dist.convs.4.1.running_mean f4 [32]
0.17770529 0.0744431 -0.14129665 -0.4109164 0.10308296 -0.16120361 -0.16216628 -0.16356817
0.43742195 -0.20263359 -0.3637839 -0.22487147 -0.07550114 0.11939679 -0.14791733 -0.15710287
0.086433694 -0.07946146 0.15189749 -0.30287313 -0.42228225 0.12637897 -0.0581722 -0.02616057
0.13127753 -0.12291576 -0.22355919 -0.2722277 0.077969894 -0.4089689 -0.5986472 -0.009955985
00000000: 60f8 353e a075 983d 12b0 10be a263 d2be
00000010: 291d d33d 8f12 25be eb0e 26be 6a7e 27be
00000020: c5f5 df3e 2e7f 4fbe e241 babe b544 66be
00000030: 57a0 9abd 4e86 f43d a477 17be 93df 20be
00000040: 2604 b13d b1bc a2bd 048b 1b3e 3012 9bbe
00000050: 6135 d8be 7d69 013e f945 6ebd b14e d6bc
00000060: 9e6d 063e 42bb fbbd b3ec 64be 6e61 8bbe
00000070: aeae 9f3d 5f64 d1be f140 19bf 6d1e 23bc

model_dist.convs.4.1.running_var f4 [32]
0.2328979 0.20549724 0.19912525 0.19023037 0.22587264 0.2577864 0.30330393 0.16169935
0.22137451 0.21895152 0.1519021 0.27053618 0.2746334 0.17792971 0.24198686 0.21446171
0.1865651 0.35126814 0.3390002 0.21389966 0.33508474 0.17967618 0.21104735 0.20712118
0.1918542 0.16911942 0.2129711 0.21476042 0.3057801 0.31458747 0.23150602 0.30851677
00000000: c97c 6e3e de6d 523e 7de7 4b3e c0cb 423e
00000010: 284b 673e 94fc 833e a74a 9b3e 8494 253e
00000020: 00b0 623e d434 603e 398c 1b3e b883 8a3e
00000030: c09c 8c3e 3533 363e 67cb 773e da9b 5b3e
00000040: ec0a 3f3e 6bd9 b33e 6f91 ad3e 8308 5b3e
00000050: 3a90 ab3e 08fd 373e cc1c 583e 9317 543e
00000060: 6d75 443e a42d 2d3e 1915 5a3e 28ea 5b3e
00000070: 368f 9c3e 9c11 a13e ea0f 6d3e e9f5 9d3e

model_dist.convs.5.0.weight f4 [32, 32, 3]
-0.17621297 -0.07175807 -0.023047404 0.057811193 -0.12421439 0.06949168 -0.018516984 0.054253966
-0.09343724 0.0054358677 0.11113899 -0.03352945 -0.088068284 0.102539964 0.17397232 0.012022465
-0.06727871 -0.09718185 -0.20762697 -0.014548465 -0.045906294 0.11423846 -0.23855041 0.0715466
-0.05533367 0.0967958 -0.12266863 -0.18677591 -0.0073857442 0.02783719 -0.061930846 0.04260795
-0.070151284 -0.052333575 0.1187022 -0.008288545 -0.083578795 0.122266084 0.12420211 -0.088739544
0.035547372 0.0008062257 -0.06828305 0.012114923 -0.098907135 -0.064369805 0.086732335 -0.05706913
0.046881154 -0.059360925 0.10842471 0.11091711 0.2039389 0.07286291 0.1533396 0.20198528
-0.16566408 0.026338365 0.031831022 0.0026087887 0.16303684 -0.16525555 0.10675676 -0.11679611
0.026173238 0.019901704 -0.17633203 0.09017948 -0.04176562 0.0063579865 -0.026732406 -0.03716102
0.020190109 -0.05514145 -0.0024097306 -0.076464124 -0.13489649 0.05422361 -0.009082396 0.15286386
-0.16067103 0.016490161 0.070278786 0.064179264 -0.10641365 -0.04752136 -0.03093597 -0.1825605
0.07011243 -0.035765443 0.07910574 -0.12672117 -0.09521223 -0.060728125 0.01758706 -0.0014718681
0.028592793 0.117273375 -0.09066529 -0.09541073 0.004266287 -0.006942152 -0.08885919 -0.10705856
0.2422646 0.072370306 -0.024275234 0.025145492 0.08206511 -0.13454473 -0.01411351 0.026900958
0.062639974 -0.0612395 0.039651796 0.069850616 0.08645863 -0.06771022 0.0063018384 -0.0220922
0.03262345 0.04652033 0.00634192 -0.05730889 -0.08580452 -0.009160936 0.045268703 0.043553848
-0.0140781775 -0.16667807 -0.047987275 -0.11897768 0.07939731 -0.017410906 -0.08471536 -0.045196116
0.10762672 -0.067604996 0.060341943 0.023495734 0.09900628 -0.014612528 0.0068967133 -0.040738482
-0.10100071 0.19742106 -0.046014793 0.21629342 -0.12603559 0.118417494 0.10964109 0.1072986
-0.12320173 0.07338338 -0.06970829 -0.09279757 -0.19552219 -0.0016470355 0.18065089 0.042990934
-0.114993066 -0.02786713 0.055493332 -0.14368543 -0.09844183 0.089188196 -0.05581097 -0.11693547
-0.09574328 0.11759332 0.100626774 0.13971746 -0.19604637 0.18307048 0.026273387 -0.0957173
0.042597253 0.14917272 0.008290937 -0.057164848 -0.08738921 -0.18207513 -0.102756456 -0.13748246
0.0478376 0.011130233 -0.039300825 -0.17917992 0.13557468 0.09879861 -0.06977817 0.063922614
-0.002901439 -0.090839535 0.018460225 0.020776827 0.124854 0.22895248 -0.16643506 0.06748944
-0.104303926 -0.17127363 0.10592971 0.12553605 -0.10515847 0.07680437 -0.18634285 0.049391538
0.12090086 -0.23160483 -0.17122722 -0.026294498 -0.07570958 -0.04150138 -0.06174929 0.07499867
0.06336355 -0.07391551 0.060621627 -0.0438973 -0.03940879 0.02911345 -0.102976255 -0.052427243
-0.26376486 0.079401955 -0.041712433 -0.12672526 -0.042314712 0.15216649 0.1375899 -0.030991625
-0.06308706 -0.008808449 -0.00620528 -0.009634084 0.07324919 0.10847787 0.093865015 0.123619124
0.11459813 0.0413644 -0.19921908 0.02927937 -0.072250925 0.0029040554 -0.11039574 -0.14938582
-0.08582728 0.023157854 0.0007043297 0.014972134 -0.0095500285 -0.011756962 -0.16408786 -0.046207126
00000000: 2c71 34be e5f5 92bd e9cd bcbc 6ecb 6c3d
00000010: 1d64 febd a751 8e3d eeb0 97bc 6839 5e3d
00000020: 065c bfbd 5d1f b23b d79c e33d 2d56 09bd
00000030: 255d b4bd 7900 d23d cd25 323e dff9 443c
00000040: 6cc9 89bd 4707 c7bd 2a9c 54be af5c 6ebc
00000050: 3d08 3cbd dbf5 e93d 8f46 74be 0687 923d
00000060: 8fa5 62bd e03c c63d b139 fbbd 2f42 3fbe
00000070: 1d04 f2bb d20a e43c 33ab 7dbd ac85 2e3d
00000080: 7aab 8fbd bb5b 56bd 241a f33d adcc 07bc
00000090: 5c2b abbd a466 fa3d ad5d fe3d 14bd b5bd
000000a0: 1f9a 113d e458 533a fcd7 8bbd ac7d 463c
000000b0: d38f cabd 51d4 83bd b9a0 b13d 52c1 69bd
000000c0: 7406 403d 7124 73bd c60d de3d 8328 e33d
000000d0: 5cd5 503e 2639 953d 0e05 1d3e 3bd5 4e3e
000000e0: d8a3 29be 8ec3 d73c 3f61 023d 36f8 2a3b
000000f0: 21f3 263e c038 29be 4aa3 da3d cd32 efbd
00000100: 4269 d63c e608 a33c 6290 34be 05b0 b83d
00000110: 6d12 2bbd a856 d03b ebfd dabc 2736 18bd
00000120: ba65 a53c 00dc 61bd 92ec 1dbb 3999 9cbd
00000130: 4e22 0abe 9319 5e3d 54ce 14bc 5888 1c3e
00000140: f286 24be 6016 873c 53ee 8f3d 6b70 833d
00000150: 66ef d9bd c2a5 42bd 6e6d fdbc 24f1 3abe
00000160: 1b97 8f3d c97e 12bd 3102 a23d 32c3 01be
00000170: a1fe c2bd 0ebe 78bd bd12 903c b3eb c0ba
00000180: 6f3b ea3c 062d f03d b9ae b9bd b366 c3bd
00000190: 36cc 8b3b fe7a e3bb cffb b5bd 8541 dbbd
000001a0: 3614 783e e236 943d dbdc c6bc ebfd cd3c
000001b0: c111 a83d 18c6 09be 5a3c 67bc 665f dc3c
000001c0: 6349 803d 45d6 7abd ec69 223d d70d 8f3d
000001d0: 3911 b13d a8ab 8abd a77f ce3b b4fa b4bc
000001e0: 2ba0 053d 1a8c 3e3d e1cf cf3b babc 6abd
000001f0: 48ba afbd c017 16bc ad6b 393d 8565 323d
00000200: 28a8 66bc a8ad 2abe 4e8e 44bd 92aa f3bd
00000210: 0f9b a23d 51a1 8ebc 3f7f adbd 901f 39bd
00000220: 666b dc3d 7d74 8abd 1d29 773d 207a c03c
00000230: cec3 ca3d 6269 6fbc d3fd e13b 65dd 26bd
00000240: 76d9 cebd bf28 4a3e 027a 3cbd 067c 5d3e
00000250: 790f 01be df84 f23d 828b e03d 5ebf db3d
00000260: 3051 fcbd 074a 963d 38c3 8ebd a70c bebd
00000270: f836 48be 57e1 d7ba 8cfc 383e 4317 303d
00000280: 7c81 ebbd 9b49 e4bc fa4c 633d 4622 13be
00000290: df9b c9bd 4da8 b63d 0b9a 64bd dd7b efbd
000002a0: 0e15 c4bd c4d4 f03d 6915 ce3d 1812 0f3e
000002b0: 61c0 48be d476 3b3e 493b d73c 6f07 c4bd
000002c0: 757a 2e3d bcc0 183e b6d6 073c b025 6abd
000002d0: 1df9 b2bd e771 3abe fa71 d2bd 34c8 0cbe
000002e0: 5cf1 433d 955b 363c e7f9 20bd f17a 37be
000002f0: 17d4 0a3e ed56 ca3d dbe7 8ebd dce9 823d
00000300: 1226 3ebb 140a babd e639 973c 2a34 aa3c
00000310: 74b3 ff3d 8572 6a3e f46d 2abe e737 8a3d
00000320: 4c9d d5bd 5b62 2fbe adf1 d83d 868c 003e
00000330: 535d d7bd 9c4b 9d3d a9d0 3ebe c84e 4a3d
00000340: df9a f73d d129 6dbe 3056 2fbe 8f67 d7bc
00000350: a00d 9bbd 5afd 29bd d3ec 7cbd e798 993d
00000360: c0c4 813d 0461 97bd 624e 783d a8cd 33bd
00000370: 1d6b 21bd 547f ee3c 37e5 d2bd f3bd 56bd
00000380: 300c 87be 7e9d a23d a8da 2abd 44c4 01be
00000390: 3152 2dbd 88d1 1b3e 5ee4 0c3e 26e2 fdbc
000003a0: ca33 81bd 5051 10bc a955 cbbb 47d8 1dbc
000003b0: ac03 963d a529 de3d 4d3c c03d 062c fd3d
000003c0: 6db2 ea3d b86d 293d 1600 4cbe 4adb ef3c
000003d0: 4bf8 93bd f751 3e3b 2917 e2bd 99f8 18be
000003e0: 37c6 afbd 8ab5 bd3c c4a2 383a ae4d 753c
000003f0: b977 1cbc 46a0 40bc a606 28be af43 3dbd

model_dist.convs.5.0.bias f4 [32]
-0.016759956 -0.05902308 0.17155975 0.07570445 -0.26164764 0.047856893 -0.14064041 -0.09233954
-0.10938561 0.11836293 -0.031836744 0.13276641 -0.053538006 -0.12277686 -0.09593426 -0.17206356
0.053897418 -0.02319114 0.12579653 0.08679609 0.06582739 -0.14429945 -0.06458003 -0.007682502
-0.14032549 -0.027467798 -0.1310159 0.13548091 0.12198019 0.073661186 -0.011120063 -0.10145159
00000000: 2d4c 89bc 2fc2 71bd 5cad 2f3e ef0a 9b3d
00000010: aef6 85be 9705 443d 0a04 10be 831c bdbd
00000020: 9005 e0bd 4468 f23d 3f67 02bd ebf3 073e
00000030: ab4a 5bbd 6f72 fbbd 2e79 c4bd 6e31 30be
00000040: 8ac3 5c3d 58fb bdbc ced0 003e 26c2 b13d
00000050: 83d0 863d 3cc3 13be 8942 84bd 7fbd fbbb
00000060: 7cb1 0fbe 2604 e1bc 0829 06be 82bb 0a3e
00000070: c0d0 f93d addb 963d ed30 36bc dac5 cfbd

model_dist.convs.5.1.weight f4 [32]
1.0008899 0.98187065 1.0121886 0.91264194 1.0349864 0.9901997 1.0823374 1.1023304
0.9422936 1.0102932 0.8993924 0.9602356 1.0081917 0.91074324 0.981064 0.9794344
0.95766455 0.96671265 0.9660921 1.0053107 1.0537987 0.9019536 0.96901095 0.9733355
0.90027136 0.9686201 1.0065984 0.9737957 0.9383015 1.122333 1.060092 1.0845629
00000000: 291d 803f e05b 7b3f 658f 813f e7a2 693f
00000010: 6f7a 843f ba7d 7d3f 088a 8a3f 2a19 8d3f
00000020: 273a 713f 4a51 813f 953e 663f 00d2 753f
00000030: 6d0c 813f 7826 693f 0327 7b3f 36bc 7a3f
00000040: 8129 753f 7b7a 773f d051 773f 05ae 803f
00000050: e0e2 863f 6ee6 663f 1a11 783f 842c 793f
00000060: 2f78 663f 7df7 773f 37d8 803f ad4a 793f
00000070: 8734 703f 9ca8 8f3f 18b1 873f f5d2 8a3f

model_dist.convs.5.1.bias f4 [32]
0.0065469523 0.011816839 0.039221603 -0.07191627 -0.009793422 -0.010480507 -0.004316487 0.107676044
-0.07726592 -0.016958881 -0.060293328 0.12182543 0.06369972 -0.12238522 0.015505351 -0.026479676
0.011143088 0.10459154 -0.06625382 0.12875478 -0.18249823 -0.11760635 0.094511315 -0.0366969
0.03238195 -0.013492546 0.10739008 0.0058296355 0.078980245 -0.12729277 0.096944615 -0.10895907
00000000: d187 d63b 6a9b 413c d5a6 203d d648 93bd
00000010: 9774 20bc 6fb6 2bbc 5171 8dbb 4285 dc3d
00000020: 983d 9ebd 5aed 8abc 23f6 76bd 9c7f f93d
00000030: 0075 823d 1aa5 fabd 280a 7e3c e8eb d8bc
00000040: 8091 363c 1734 d63d 15b0 87bd 4bd8 033e
00000050: d1e0 3abe 99db f0bd 268f c13d 7d4f 16bd
00000060: f0a2 043d d70f 5dbc 55ef db3d 8706 bf3b
00000070: 65c0 a13d 0959 02be e68a c63d ef25 dfbd

model_dist.convs.5.1.running_mean f4 [32]
-0.24590477 -0.18238066 -0.33458188 0.3373738 -0.29837877 -0.19995221 -0.9287554 -0.9785222
-0.5630622 -0.0020923023 -0.13076264 -0.24646635 0.04709321 -0.12237868 0.035260275 -0.38543347
-0.29811546 0.7911095 0.28956124 -0.15323173 -0.41565374 -0.85680026 0.23816551 0.31869105
-0.2671008 -0.35638475 -0.55206263 0.5071952 -0.0097896205 -0.32425246 0.015428716 -1.026806
00000000: 76ce 7bbe ffc1 3abe 514e abbe 42bc ac3e
00000010: 1ac5 98be 46c0 4cbe eac2 6dbf 6e80 7abf
00000020: d824 10bf 021f 09bb a4e6 05be ad61 7cbe
00000030: cfe4 403d aca1 fabd 146d 103d 8957 c5be
00000040: 97a2 98be 2786 4a3f 5f41 943e c7e8 1cbe
00000050: 91d0 d4be 4357 5bbf a9e1 733e 792b a33e
00000060: 70c1 88be 1078 b6be fa53 0dbf 8bd7 013f
00000070: a564 20bc 6b04 a6be bac8 7c3c 616e 83bf

model_dist.convs.5.1.running_var f4 [32]
0.39517468 0.3362105 0.42597774 0.40009502 0.6997244 0.62403095 0.57100254 0.87515
0.41158554 0.46411988 0.43812105 0.43665904 0.55914676 0.30442235 0.36604255 0.46070692
0.38628113 0.54766816 0.37903544 0.45897347 0.5136863 0.5431959 0.42690867 0.34632874
0.35758063 0.4538179 0.36032337 0.5162751 0.49592373 0.5051712 0.51733243 0.4707787
00000000: 5654 ca3e c823 ac3e c119 da3e 41d9 cc3e
00000010: 2321 333f 7ec0 1f3f 392d 123f d509 603f
00000020: 57bb d23e 1fa1 ed3e 6751 e03e c691 df3e
00000030: 3e24 0f3f 3fdd 9b3e ee69 bb3e c7e1 eb3e
00000040: a4c6 c53e fb33 0c3f ef10 c23e 92fe ea3e
00000050: f280 033f e30e 0b3f c693 da3e 0052 b13e
00000060: cf14 b73e d25a e83e 4e7c b83e 9b2a 043f
00000070: b7e9 fd3e e652 013f e66f 043f e809 f13e
